policy_cartpole.pth (torch_old, 20158 bytes, 7 tensors)

main_net.layers.0.weight f4 [64, 4]
00000000: 49a1 993d 1d85 15bb 7b66 38bd 6bb1 66bc
00000010: 9169 183e 9962 b5bd 61d7 c0bc dd56 b1bd
00000020: 615a 6f3d bc86 6f3e c4f9 6cbd 03b2 a7bd
00000030: 4257 073e 74bc 71be 3c8e 02bd d069 6fbe
00000040: a936 963c 0b18 ca3e 4281 2e3e c29f 3e3c
00000050: 8520 e53d 4cd8 d7bd 941d afbe cf6d b3bc
00000060: 9061 863e 62e3 9bbe 82e8 ddbe 594b 75be
00000070: 5ea6 273e 8370 02bf 71c4 83bf 8b10 efbe
00000080: d7df 873e b459 403e 5270 7fbe 541d b83c
00000090: 7a41 6a3e 5073 4b3e 688b 97be 9163 2f3d
000000a0: 1a1b b23e 46f2 c5be 45cb 5bbf 2142 adbe
000000b0: 16ce 97bc 90c9 36bd 141a 45be 1cce e1bd
000000c0: 9658 843d 2cb3 113d 04a1 9bbd 5112 6ebb
000000d0: 97b8 0e3e b886 e1bd 5999 4bbe e73a 9abd
000000e0: 483d 2b3d 7e9e 29be 328a 5fbe da90 40be
000000f0: 4643 6d3c fdee 70bd 3c14 1ebe 1c9f b7bd
00000100: 1fc9 683e 4561 0e3e 9585 73be e9b6 b3bc
00000110: 9e74 3e3e 5f40 39be 3ba1 62be 2875 bbbd
00000120: 0e47 9f3f 004d 393f 5351 cc3e 6d42 eb3e
00000130: b514 6abd 29fa 483d 1746 0d3e 81bf 22be
00000140: b39b bcbd 19c4 2bbe ffa5 3bbd ab37 30be
00000150: c25a 473e f175 3abe bd5d 7c3a 73a5 20be
00000160: 62bc 4b3e 15b9 58be b214 45be b90c 72bd
00000170: bdae c83b 7268 fdbc 5403 c53d 33c8 c13d
00000180: f270 ea3c 7eda 563d 7c3d 53be 681c 3d3d
00000190: 0751 f2bb d1e5 d2bd 21af 23bd 97af 18be
000001a0: 8ba2 173d 0f4e 6f3d 4186 88bd 1f84 1b3d
000001b0: 0b6a 4a3e 81e4 4dbe cf79 adbd 7444 43be
000001c0: 68e6 0f3e d59f 98bd 1a71 4cbe 18c5 0dbd
000001d0: e1bb 613f 0c56 54bd fc19 15bf e952 0bbe
000001e0: 3fc7 ab3d b5a0 e8bd 0ebb f3bd 001a 0bbe
000001f0: 85ef be3d db66 79bd b7ff 8b3d 068a ebbd
00000200: bc17 09be bc9f 36bd 6ef7 233e d6d4 24be
00000210: ccf7 8e3e dba8 6dbe 632a cdbe 3fb9 ebbc
00000220: bb9e d03d c157 c1bc 43e8 7abc 0d07 d5bb
00000230: 999f 703e 2d1c 363e 5e23 c0be de76 d73d
00000240: 50af 343e 534f 42be e8c9 a6be fe27 bfbd
00000250: 4e46 ce3d 6b1c e5bd c247 0ebe beff cfbd
00000260: a7e2 1fbe 552e d6bc 7d24 81be a89f b2bd
00000270: 8a60 bb3d 402d 84be 0b29 403d cff4 90be
00000280: 8ffb 193b 0b05 30be 0f21 41be 1149 44be
00000290: e64b c6b9 2be1 10bd d7bf ec3d 5a0e 18be
000002a0: a084 d33c d4dc 97bd 5bcd b4bd 935f e1bd
000002b0: 2b5f ed3d 902e 413e 48f4 9abe 7d5c 6cbb
000002c0: a2dc d23d 00c6 12be 1fa0 abbe 0606 0bbe
000002d0: 14ce c53d 95e0 febd 4492 a8be 5459 d7bd
000002e0: 6651 eebd 5b57 e1be 7be8 bcbf 13e0 1abf
000002f0: 78c5 e23d c82c 74be 331c e0bc b1fd 6ebe
00000300: c39d 5e3d 26af 9bbd 9c56 8bbe ac5a 94bd
00000310: 85e2 6b3d 77f9 8dbd 56b4 b83d 8d39 10be
00000320: 9159 28bd 5dc0 ef3c 4b65 84be 5556 a7bc
00000330: 12c7 803d d165 d23c cb40 efbd 10f4 2b3c
00000340: 0b58 0fbf 1e2e 1dbf a0c1 98bf 2dc7 0cbf
00000350: 2f0d 853d bf8b c1bd 8305 68be de48 f6bd
00000360: 3903 5d3d f050 a7bd 6b1c 9e3e 607e 45be
00000370: 4e7a 083e 4c13 a3bd da13 19be d55e 18bd
00000380: 6be7 133e 264c 0dbe 0b20 5abe c304 fcbd
00000390: d12b 803d 032b 77be 8ce1 53be 7790 28be
000003a0: 028b 2abc f75b ac3d 1db0 e7bd 8d56 87bc
000003b0: 2251 f93c 65d8 133d c11c dcbd 54e1 44bd
000003c0: c41d b53d f98b ccbc 2f10 68ba 4475 74bd
000003d0: 0671 453e e7fc 103e 66d2 cebe cf94 7d3d
000003e0: 85bd 8f3d 6cad 46be 1c5d 5abe 2f8d 54be
000003f0: 7f41 0b3e 3096 033e f579 9c3d 4a76 2cbd
0.07501466 -0.0022814937 -0.045019608 -0.014080386 0.1488402 -0.08856697 -0.0235402 -0.08659146
0.0584358 0.23391241 -0.057855383 -0.0818825 0.1321688 -0.23607045 -0.031873927 -0.23380208
0.01833661 0.39471468 0.17041495 0.011634769 0.11187843 -0.10539302 -0.34202254 -0.021902947
0.2624631 -0.30446917 -0.43341452 -0.23954524 0.16372058 -0.5095293 -1.0294324 -0.4669231
0.26537964 0.18784219 -0.2494519 0.022474922 0.2287654 0.19868207 -0.29598546 0.042819563
0.34786302 -0.38661402 -0.8585704 -0.33839515 -0.018530887 -0.04462582 -0.1924823 -0.1102564
0.06462209 0.035571262 -0.07599071 -0.0036326835 0.13937603 -0.11012024 -0.19882716 -0.07530766
0.04180649 -0.16564366 -0.21830061 -0.18805256 0.014481371 -0.058821667 -0.15437406 -0.089658946
0.22732972 0.13904293 -0.23781426 -0.021937804 0.18599173 -0.18090962 -0.22131817 -0.09153205
1.2443559 0.7238312 0.39905795 0.45949116 -0.057148654 0.049066696 0.13796268 -0.15893365
-0.09209385 -0.16774024 -0.045812603 -0.17208736 0.19468215 -0.18209054 0.0009627005 -0.15688114
0.19896081 -0.21164353 -0.19246176 -0.059094165 0.006124346 -0.030933592 0.096197754 0.09462013
0.02861831 0.052454464 -0.20628923 0.04616967 -0.007394913 -0.1029774 -0.039961938 -0.14910732
0.037020247 0.05842405 -0.06666232 0.037967797 0.19767015 -0.20106699 -0.08470499 -0.19069082
0.14052737 -0.074523605 -0.1996502 -0.03461179 0.88177305 -0.051839873 -0.58242774 -0.13605846
0.083876126 -0.113587774 -0.11900912 -0.13584137 0.093230285 -0.060889106 0.06835883 -0.11500935
-0.1338796 -0.04458593 0.16012356 -0.16096815 0.2792343 -0.23208944 -0.400714 -0.028774856
0.101865254 -0.023601415 -0.015314165 -0.0065010847 0.23498382 0.17784186 -0.37526983 0.10520719
0.17645001 -0.18975572 -0.32575917 -0.093338 0.10072003 -0.11187061 -0.13894561 -0.10156201
-0.15613805 -0.02614514 -0.2522315 -0.08721858 0.09149273 -0.25815773 0.04691414 -0.28311774
0.0023495888 -0.17189424 -0.18860267 -0.19168498 -0.00037822052 -0.035370987 0.11560028 -0.14849225
0.025820076 -0.074151665 -0.08828231 -0.110045575 0.115904175 0.18865418 -0.30264497 -0.003606587
0.102959886 -0.14333344 -0.335206 -0.13576517 0.09658447 -0.124451794 -0.32924092 -0.10515085
-0.11636619 -0.4401196 -1.4758447 -0.6049816 0.110728204 -0.23845208 -0.027357196 -0.23338963
0.054349672 -0.07601766 -0.27214515 -0.07243857 0.057589073 -0.06932347 0.09018771 -0.14084454
-0.041101042 0.02926653 -0.2585853 -0.020426909 0.0628797 0.025683315 -0.1168228 0.010495201
-0.5599372 -0.61398494 -1.193409 -0.5499142 0.06496655 -0.094504826 -0.22658353 -0.12025617
0.05395815 -0.081697345 0.30881056 -0.1928649 0.13327906 -0.07962665 -0.14948979 -0.037199814
0.14443748 -0.1379858 -0.21301286 -0.12305596 0.06258357 -0.24137501 -0.20691508 -0.16461359
-0.010409119 0.084159784 -0.11312888 -0.016520763 0.030434195 0.03609504 -0.10747672 -0.048066452
0.08843568 -0.024969088 -0.0008852509 -0.059682146 0.19281396 0.14158975 -0.40394896 0.061909493
0.0701857 -0.19402093 -0.21324581 -0.20756982 0.13599204 0.1285026 0.07640449 -0.042104997

main_net.layers.0.bias f4 [64]
00000000: df66 6c3e 8f3c 933e a6c8 5ebd c4bd 833e
00000010: c3f1 883e ce5b 733e 340a 9c3e 3db3 843c
00000020: 78bd a53d 3ef6 993d 7eaa 323d e355 853e
00000030: be05 833e eb70 833e b194 823e 6c5f 743e
00000040: f585 553d ac52 933e 48d2 21bd 4d81 2e3e
00000050: 4241 993e ca49 7b3e 5868 b03e 9fd6 963e
00000060: b2ac 813e 348e 713e 350f 7e3e bc78 823e
00000070: a762 8f3e 6bc5 cc3b d57d 7d3e 4139 803e
00000080: 9608 783e 6d43 c53e ca87 843e 77f1 a53d
00000090: d0a0 8e3e 8369 7b3e bae1 7c3e ed14 9b3e
000000a0: 7622 8c3e 7b3b 893e 5733 6b3e 42ce cf3c
000000b0: 89f4 823e a43d 803e a528 1ebd 1547 843e
000000c0: 4c52 743e cb5f 6d3e bfc5 813e 6ccd 7c3e
000000d0: 10a1 9abc 08d7 803e be2d 4d3e e182 863e
000000e0: cc7d 903e 5225 843e c1b9 663e 2939 633e
000000f0: 6e76 783e 028c 6d3d 9f55 8a3e dee0 233e
0.23086117 0.2875714 -0.054390572 0.25730717 0.2674695 0.2376549 0.30476534 0.016198749
0.08092779 0.0751767 0.043619625 0.2604209 0.25590318 0.25672087 0.25504068 0.23864526
0.052129705 0.2877401 -0.03950718 0.17041512 0.299326 0.24539867 0.34454608 0.29460618
0.2532707 0.23589402 0.24810489 0.25482738 0.28004953 0.00624912 0.24755032 0.2504368
0.24222025 0.38528004 0.2588485 0.081026964 0.27857065 0.24551968 0.24695483 0.30289403
0.27370042 0.26803192 0.22968803 0.025366906 0.2557719 0.25047028 -0.03861298 0.2583548
0.23859519 0.23181073 0.2534618 0.24687737 -0.018875629 0.25164056 0.2003698 0.26271728
0.28220975 0.25809723 0.22531797 0.22189774 0.24263927 0.05799485 0.2701845 0.16003749

main_net.layers.1.weight f4 [64, 64]
00000000: f4e9 a73e 18f2 263e a645 193d fe02 c13e
00000010: e9bb 58be 90a6 803e eae2 b63e bfe9 1dbf
00000020: 85be 603e a56f 873d 8ed3 edbd 5827 d03e
00000030: 04f1 653e 1c7f d63e 279d ef3e 3ef1 133e
00000040: 4d6b 2739 8904 bf3e f0ae d4be 6e97 8c3e
00000050: 3a57 a23c 9446 163f 6052 4a3e 86da 5d3e
00000060: 38c4 283e f093 323e 9b3a 5fbc 3d9b e53e
00000070: 67f7 603e ebfe 01be 5b65 6ebd 8dec e13c
00000080: 99dc 97bd 7181 413e 6b65 ae3e 7a5f 7c3d
00000090: 1bf1 d23d c6ec 963e 9159 dd3d 4fae 033e
000000a0: fa17 923e 369a aa3c 4322 823e 5a6b 4d3c
000000b0: 6fe3 993e 89e1 da3e f9f1 dcbe 37b7 993e
000000c0: 4553 a43e 3ac8 2c3e 1a2b 7a3e 9c5e 9f3e
000000d0: d594 1fbf 9cba d23e 54d1 733e 0ec5 433e
000000e0: 900a 0e3e cc5b 783e 163c 433e f9ed 843c
000000f0: 676b 803e 8d99 d03e 5ac6 0c3e 1dd2 17be
00000100: cf25 153f 95ce b43e 2639 1d3e aa86 b03e
00000110: a823 01bc f08b bc3e 35d2 0c3f 4775 95be
00000120: 6004 0bbd 2ee3 713e 009a 373d b894 a33e
00000130: 92d7 6d3e 099e ca3e 09fc 9f3e a5c6 4c3e
00000140: b745 f23d ee5b 923e 7cea e0be d114 9f3d
00000150: fae5 083e 1df0 183f 5ad9 673d d1b7 b8bd
00000160: bb15 8d3e 6ddd 383e 7a32 03be 0e1c dd3e
00000170: aef3 a33e 03e2 253e 7a96 ad3e 653f 803e
00000180: 4cea 903e 3269 ac3d 66f1 063d c44a f23e
00000190: 22de a03e 0252 2b3e 2aec a83e fa8d 593c
000001a0: ae38 b23e 35c3 7d3e 9c7f 2c3e e8db 3e3e
000001b0: 0c59 0a3f 9e85 273e 155f 3ebf efcf fb3e
000001c0: 2878 573e 923e 8a3e f62e e33d 0c6c 8c3e
000001d0: 8dc8 33bf 5539 9c3e 853a f63e 09a4 833e
000001e0: 182d 773e 312d 013e 8fc2 473c 607c 4b3e
000001f0: 6503 d43e 270b a53e b145 bc3e a7a2 f83d
00000200: 4dc5 4a3e 8834 2c3e c299 56bd 603a 173e
00000210: 5e10 f3bd 69d2 ad3e a3b2 a13e 1184 86bf
00000220: 8c44 413c e470 983d ee94 37bf bf97 673d
00000230: edb6 d8bc 4696 9c3e 8c18 d43e 5a22 c53d
00000240: 696a 63bd 51f4 433e 8def efbe e06c e03d
00000250: c12f ab3e 1ade 913e 7d11 2c3e 7b24 f43d
00000260: 663b 8a3e e616 af3e 0123 763e dd51 793e
00000270: 8f66 353e 91f5 21bf 5499 b03e c4fb a2bc
00000280: bef4 9d3e f176 823d fb99 563e fb4b e23d
00000290: 6ad9 bd3d bf71 563d 6a32 633e c265 a73e
000002a0: 85df 943e 2a42 683e 6583 c73e 6f05 17be
000002b0: 98a4 813e a85a a6bd 887b 52bf f359 143e
000002c0: 330c 563e be51 613e 4017 bd3d 84f7 05bd
000002d0: e0ca 33bf dfef 9d3e 7b8d 8bbe f0d4 853e
000002e0: 1b08 9d3e 9d0e 273e fd48 a03d d157 dc3d
000002f0: 3054 383c d664 663e 147a 143e 05e8 8dbc
00000300: c850 863d 611a fb3d 317a c1bd 7d42 a03e
00000310: 52fd cabc 6777 9f3e 6a92 013f f9d2 01bf
00000320: df29 063d 1bae a43e 44b3 9ebe 310c 813e
00000330: e30c 913e c4fc a53e 1fa1 9a3e c3a2 653e
00000340: 1cf1 06be 9978 cb3e f034 17bf 5a9c 213e
00000350: fda7 8a3e d810 863e e86e a33e 0bdd 193e
00000360: 40ab 913e 430d 913e e322 833e e275 e13e
00000370: cb1c c13d 0167 84be 8208 ca3e 25f5 c83e
00000380: 55ad 173e 06d5 e4bb 7740 373e 3b1b 3b3d
00000390: 409d 813e ce16 a43e 4bb0 c73e f0ab 4b3e
000003a0: 8c03 d93e 5d5f 9fbd 3bbd 4c3e 1686 633e
000003b0: 43d5 c43e 3e7e a33e 745e 4dbf 8622 d73e
000003c0: 3b96 163e 03bf d53e d78e 0b3e af01 863e
000003d0: eb90 83bf de56 a83e 879c 6f3d 030c 4c3e
000003e0: 914f 373e 484b e13e 30c7 ad3d 918f 2c3d
000003f0: e637 7c3e eda8 8d3d 7102 3e3d 0ebe bbbd
0.3279568 0.16303289 0.037419938 0.37697595 -0.21165432 0.25127077 0.35719997 -0.61684793
0.21947677 0.066130914 -0.116126165 0.40655017 0.22455221 0.41893852 0.46799585 0.14447495
0.00015966334 0.37308148 -0.41539717 0.27459282 0.019816983 0.58701444 0.19757986 0.21665391
0.16481102 0.17439246 -0.0136248125 0.44845 0.21969377 -0.126949 -0.05820213 0.027578617
-0.074151225 0.18897034 0.3406175 0.06161449 0.102998935 0.2947752 0.10808099 0.12859462
0.28533918 0.020825487 0.25416765 0.012537802 0.3005633 0.42750195 -0.4315336 0.30022594
0.3209478 0.16873255 0.24430504 0.3112687 -0.62336475 0.41157997 0.23810321 0.19118139
0.13871217 0.24253768 0.1906589 0.016226755 0.2508194 0.4074215 0.1374754 -0.14826246
0.58260816 0.3531386 0.15353832 0.3447774 -0.007882036 0.36825514 0.5500825 -0.29191038
-0.03393972 0.23621818 0.0448246 0.319494 0.23226765 0.39573696 0.31246975 0.19997652
0.11829703 0.28585762 -0.43928897 0.07767642 0.13368979 0.59741384 0.056603767 -0.09019435
0.27555642 0.18053217 -0.12812224 0.43185467 0.3202185 0.16199498 0.33903867 0.25048366
0.28303754 0.08418502 0.03294506 0.47322667 0.31419474 0.16730502 0.3299268 0.013278479
0.34808868 0.24781497 0.16845554 0.18638575 0.54042125 0.16359565 -0.74363834 0.49182078
0.2104193 0.27000862 0.110929415 0.27426183 -0.7022789 0.3051249 0.48091522 0.25711086
0.24138296 0.12614895 0.0121923825 0.19871664 0.4140884 0.3223507 0.3677192 0.121403985
0.19801827 0.16816914 -0.05239273 0.14768362 -0.11868356 0.33949593 0.31581602 -1.0509053
0.011796128 0.07443407 -0.71711624 0.0565412 -0.026454413 0.305834 0.41424978 0.09625693
-0.055521403 0.19136168 -0.4686245 0.10958266 0.3343487 0.28489763 0.16803546 0.119210206
0.26998442 0.34197158 0.2403679 0.24347635 0.17714904 -0.6326533 0.3449198 -0.019895442
0.30850786 0.063703425 0.20957176 0.110496484 0.09269984 0.05235457 0.221872 0.32694823
0.29076782 0.2268149 0.38967434 -0.14748167 0.25320888 -0.0812276 -0.82219744 0.14487438
0.20903091 0.22003838 0.0923295 -0.032706752 -0.7023144 0.3084707 -0.2725638 0.2613902
0.30670246 0.16314168 0.078264214 0.10758937 0.011250541 0.22499403 0.14499694 -0.01732255
0.065583766 0.12260891 -0.09447134 0.31300727 -0.024778996 0.31145784 0.50614035 -0.50712544
0.032754775 0.32164082 -0.30996144 0.25204614 0.28330144 0.32419407 0.3020105 0.2242537
-0.13177913 0.39740446 -0.5906515 0.157823 0.2708129 0.26184726 0.31920552 0.15025727
0.28450966 0.2833043 0.25612554 0.4403525 0.0942932 -0.25859836 0.39459616 0.3924953
0.14812215 -0.006983402 0.17895685 0.045680266 0.25315285 0.3204865 0.39001688 0.19889808
0.4238552 -0.07781861 0.1999406 0.22219118 0.38443956 0.31932253 -0.8022225 0.42018527
0.14705746 0.41747293 0.13628708 0.2617316 -1.02786 0.32878774 0.058498885 0.19926457
0.17901446 0.44002748 0.084852576 0.042129103 0.24630699 0.06916986 0.046389047 -0.091671094

main_net.layers.1.bias f4 [64]
00000000: 1c20 0c3e 4cdf b63d 72a3 703e a184 4e3e
00000010: 833f 053e ab21 3d3e 7528 523e a9c4 703e
00000020: c8ce 363e dc0f 673e dd94 413e 1e4b 183e
00000030: 0a66 3c3e f29c 453e fec0 2f3e dce2 553e
00000040: e6d0 5b3e 0000 0000 9554 1f3e 4a1e 383e
00000050: 2106 403e 7b86 693e eaf3 f23d 6b7c 413e
00000060: 00d7 6b3e 341d 523e d9cb 073e 2ec7 a33d
00000070: 21e3 143e 57e7 2f3e e080 5c3e 68ce 403e
00000080: 3c7e 753e 9f04 1c3e 4199 263e 5765 4a3e
00000090: a6f4 3f3e f3e9 403e 88ef 443e 1bc0 453e
000000a0: 1486 643e e14a 5b3e 2640 bb3d f0be c83d
000000b0: dd58 353e 8d21 333e 28d7 363e 1139 1f3e
000000c0: de01 ba3d 1b9a 1a3e d950 603e e03c 093e
000000d0: 4e98 2a3e 9eb7 d33d 4ed2 243e 6fe1 453e
000000e0: 449e 803e 5918 4d3e 4a2a 563e aefe 503e
000000f0: 66f8 483e afdc 3e3e f827 363e 0421 343e
0.13684124 0.08929309 0.2349985 0.20167781 0.13012509 0.18469875 0.20523246 0.2351252
0.17852318 0.22564644 0.18904443 0.14872405 0.183983 0.19298151 0.17163464 0.20887321
0.21466407 0.0 0.15559609 0.17980304 0.18752338 0.22805206 0.11862929 0.18895118
0.23031235 0.20518953 0.13261355 0.07996975 0.14539768 0.17178093 0.21533537 0.18828738
0.23973936 0.15236138 0.16269399 0.1976522 0.1874567 0.18839245 0.19231999 0.19311564
0.22316772 0.21415283 0.09143095 0.098020434 0.1770968 0.17493267 0.17855513 0.15549113
0.090823874 0.15097849 0.21905841 0.13402128 0.16659662 0.103377566 0.1609585 0.19324277
0.25120747 0.20028819 0.2091457 0.20409653 0.19626006 0.18638872 0.17788684 0.1759072

fc_actor.weight f4 [2, 64]
00000000: 3d80 2e3e b0f6 b83e 633f b6be ee67 253d
00000010: a46a 893e cbc3 65bd 517e 63be b53c f8bd
00000020: 6af6 3abc 907a 75be 296f f7bd d818 ee3d
00000030: bf29 89bd dee3 1abe ce87 a03c f725 84bd
00000040: 5645 0abe 2cac 3039 38ba 0d3e be65 7ebc
00000050: 77db abbc 52f9 99be e0b8 693e e2fc b3bd
00000060: 019f 8dbe 8641 20be 8c32 383e ed71 a83e
00000070: 93d6 2e3e 6ac8 b63b 6d34 37be c9ff b8bd
00000080: d4a5 bcbe e43c 3a3e ed2d 583d 86ec 22be
00000090: 8304 dabd 8193 32be debe 9dbd 69d4 18be
000000a0: 6a50 15be cb1a 51be 9b96 ba3e 0162 b33e
000000b0: 3d71 cebc 6a2e 173d 66e9 5bbd 4df1 a13d
000000c0: 16f3 c93e 0abf f13d b487 57be 4047 403e
000000d0: 1ac7 793d 0c5e 913e 6add 9b3d 19e2 a7bd
000000e0: 7422 bbbe 0483 00be 8abf cfbd 5370 2cbe
000000f0: f071 0dbd 7a58 c3bd d6de cb3c 8fd6 c83c
00000100: c58f 2ebe 50e4 b8be 624e b63e 089b 24bd
00000110: 8c4a 89be 2cbb 653d d496 633e bab3 f73d
00000120: 9e76 3a3c 3d61 753e 9099 f73d f9c3 eebd
00000130: c73f 893d 91d8 1a3e be61 a1bc 1544 843d
00000140: 4773 0a3e d234 0239 b1de 0dbe 84d5 803c
00000150: 6507 ab3c b3de 993e 28c8 69be bb8f b33d
00000160: c76d 8d3e fe5b 203e be42 38be 7f6c a8be
00000170: cff8 2ebe 9c78 b5bb ed51 373e ac14 b93d
00000180: 46af bc3e 9b32 3abe 2baa 57bd 84f1 223e
00000190: c329 da3d d878 323e 3776 9d3d 730e 193e
000001a0: f237 153e 5c49 513e 7aad babe da66 b3be
000001b0: 7219 d03c bb10 19bd d652 5b3d 9d1e a2bd
000001c0: b30f cabe 332c f2bd fde7 573e 6246 40be
000001d0: 427d 78bd 3852 91be 2b37 9bbd 9563 a73d
000001e0: f74f bb3e 967b 003e cab0 cf3d 8c4f 2c3e
000001f0: a7db 0d3d 091a c33d cb40 cabc eb4d cabc
0.17041107 0.36125708 -0.35595235 0.04038232 0.26839173 -0.056094926 -0.22216155 -0.12120954
-0.011411289 -0.23972535 -0.12081749 0.11625832 -0.066974156 -0.15125987 0.019596007 -0.06452554
-0.13503012 0.00016848807 0.13840568 -0.015527187 -0.020978672 -0.3007303 0.2282443 -0.08788468
-0.27660373 -0.15649995 0.17988032 0.32899418 0.17074041 0.0055780904 -0.17891093 -0.09033162
-0.36845267 0.1818729 0.052778173 -0.15910539 -0.10645392 -0.17439081 -0.07702421 -0.14924778
-0.14581457 -0.20420377 0.36443028 0.3503571 -0.02520048 0.0369095 -0.053689383 0.079073526
0.39443272 0.11804016 -0.2104786 0.1877718 0.060980894 0.28392065 0.07610591 -0.081974216
-0.36549723 -0.12549978 -0.10143955 -0.16839723 -0.034532487 -0.0953836 0.02488653 0.024516372
-0.17047031 -0.3611169 0.35606676 -0.04018691 -0.26814687 0.056086704 0.22225505 0.12094827
0.01138082 0.23962875 0.120898366 -0.116584726 0.06701618 0.15121676 -0.019699927 0.06458298
0.13520537 0.00012417443 -0.13854481 0.015726812 0.02087755 0.3005272 -0.2283026 0.08767649
0.27622816 0.15660092 -0.1799421 -0.32895276 -0.170871 -0.0055380594 0.17902346 0.09037146
0.36852473 -0.18183367 -0.05265252 0.15912443 0.10652497 0.1742891 0.07688563 0.14946918
0.14572123 0.2043814 -0.36460477 -0.35039407 0.025402758 -0.03736947 0.053545795 -0.07915995
-0.39465103 -0.118248366 0.2108459 -0.18776849 -0.06066633 -0.2838304 -0.07578882 0.08173291
0.36584446 0.12547144 0.10141142 0.1682722 0.034633305 0.0952645 -0.024689099 -0.024695357

fc_actor.bias f4 [2]
00000000: d163 06bf d163 063f
-0.5249606 0.5249606

fc_critic.weight f4 [1, 64]
00000000: a449 b03e 6676 b63e 2c67 ff3e 73e2 013f
00000010: 5155 e63e 23c3 fe3e f929 083f d617 123f
00000020: fd23 f23e e305 0c3f 8544 f43e ee7e cb3e
00000030: f256 033f d0c9 e13e 7951 d63e d2d8 093f
00000040: 0215 0f3f 479c 3f38 e443 e23e 7745 073f
00000050: a7d6 f33e 6665 093f baf7 ba3e 8ebf f93e
00000060: 2ea8 d13e d0e4 013f b1ae bb3e 2b15 9d3e
00000070: f4af e23e 92a6 f53e 0abc 083f e078 063f
00000080: a9b4 003f 8b10 ea3e d46e fb3e ef49 083f
00000090: 5ac0 f33e fd26 f93e bb7f e43e 646c 023f
000000a0: 1954 013f 5d84 ef3e 1946 bf3e ccaf b63e
000000b0: 6175 e23e 9d6d f93e a79d ff3e 736f d83e
000000c0: 9c53 a93e aa52 cb3e 2fee 153f 90b6 cc3e
000000d0: bdd6 f03e e516 b93e 6c35 ea3e 642e fc3e
000000e0: 8d62 023f 05e4 e03e 4c79 103f 69ee 073f
000000f0: 4127 fa3e 8fa3 f93e efcc e03e cba8 023f
0.34431183 0.35637206 0.498834 0.5073616 0.44986966 0.49758253 0.53189045 0.5706762
0.47293082 0.5469648 0.47708526 0.39745277 0.51304543 0.44099283 0.41859034 0.53846467
0.5589143 4.5683493e-05 0.4419242 0.5284037 0.47624704 0.53670347 0.36517125 0.48778957
0.40948623 0.50739765 0.36656716 0.30680212 0.44274867 0.47978646 0.53411925 0.5252819
0.50275666 0.45715746 0.49107993 0.53237814 0.4760769 0.48662558 0.446287 0.5094664
0.5051895 0.46780673 0.37358168 0.35680997 0.44230178 0.4871644 0.49924967 0.4227253
0.330716 0.39711505 0.58566564 0.39983034 0.47038832 0.3615028 0.45743883 0.49254143
0.50931627 0.43923965 0.56435084 0.5309816 0.48858073 0.48757598 0.43906352 0.5103881
